uber_model_weights.pt (torch, 111078 bytes, 17 tensors)

batch_norm.weight f4 [6]
1.07361 0.99165976 1.1350912 0.99593246 0.87042326 1.1187471
00000000: 0d6c 893f 6add 7d3f ab4a 913f 6ef5 7e3f
00000010: 0fd4 5e3f 1b33 8f3f

batch_norm.bias f4 [6]
-0.20517987 0.015977694 -0.03720465 0.010798503 -0.13148172 -0.10458685
00000000: ac1a 52be a7e3 823c e763 18bd 34ec 303c
00000010: 25a3 06be a131 d6bd

batch_norm.running_mean f4 [6]
-73.97649 40.75153 -73.97442 40.751884 1.3447964 3.301178
00000000: f6f3 93c2 9101 2342 e7f2 93c2 ee01 2342
00000010: 4a22 ac3f 8046 5340

batch_norm.running_var f4 [6]
0.000987385 0.00065642747 0.0010550346 0.00091259176 0.5684018 10.887942
00000000: 256b 813a 1a14 2c3a 1649 8a3a ff3a 6f3a
00000010: c882 113f 0335 2e41

final_layers.0.weight f4 [200, 23]
-0.019047586 -0.0029489244 0.009115361 -0.010581214 -0.0024790834 -0.02004401 -0.008159118 -0.047407422
-0.02709953 -0.030688446 -0.024784787 0.0070752623 0.022905154 -0.09069598 0.006320966 0.03177902
-0.056021094 0.04841613 0.010977697 0.02044646 -0.06336085 -0.01887214 -0.30173537 -0.070533596
0.087481886 -0.06553907 0.14613463 0.06837561 0.054669175 -0.0045568435 0.06150657 0.088490754
-0.013945042 -0.1046234 -0.082501225 -0.11453954 0.03781585 -0.025988983 0.05016486 0.007925547
-0.055830896 -0.0032776939 0.003674394 -0.036062397 0.010097386 0.26995564 -0.062747695 -0.019006895
0.015439055 -0.011159396 -0.021503892 -0.0060578804 -0.05152807 0.012248089 0.058689598 0.011950482
-0.008315726 -0.049902614 -0.01335233 0.02948198 -0.047731668 0.0017018853 0.08228439 -0.009776972
-0.046336435 0.060677413 -0.030990666 0.01766747 0.21053533 -0.21606396 0.07122985 0.019986037
0.15819186 -0.08437158 -0.18288626 -0.18547241 0.04028996 -0.024004849 -0.09793182 -0.006362205
0.06505115 -0.05187071 -0.11777368 0.12660731 -0.07720693 0.14732367 0.121673554 -0.07271508
-0.1241214 -0.036720056 0.124089174 -0.2026305 0.007918144 0.0033977737 0.0013136012 0.0035955256
-0.0053170924 -0.0041603553 0.0002926727 0.0024247584 -0.0009504434 -0.008660518 0.0008801447 -0.0014061264
-0.0018783418 -0.0056644515 0.0045824694 -0.0035919643 0.009357686 0.23977777 -0.13539815 -0.20587574
0.112580754 0.0093178265 0.17947543 0.062228102 -0.07645114 0.12271779 -0.009699009 0.15952484
-0.011463774 0.18721522 0.048730236 0.013006307 -0.12690653 -0.10179998 -0.103720695 -0.0123578375
0.18750565 -0.03374244 -0.08999536 0.059700944 -0.2056141 -0.14236116 -0.09201204 0.165551
-0.23885761 -0.096104704 0.002499974 0.0065452214 -0.005744843 0.0033804683 0.009379899 -0.0066319527
0.0024242268 2.0009538e-05 -0.0070673837 0.0083153 -0.00423995 -0.003341345 -0.0014823687 0.0040158955
0.0047229715 0.003499637 0.0049646953 -0.024140568 -0.037775163 -0.019712154 0.034014285 -0.006089959
-0.3686059 0.13922317 -0.0021064717 0.1346891 -0.08442916 0.018481005 0.07089885 0.07625175
-0.1138675 0.04744113 -0.095259756 0.08683733 0.07244997 -0.1695115 0.040124834 0.10805478
-0.031208374 -0.12072308 0.24566393 -0.2258834 -0.12522687 -0.1247925 -0.0040959446 0.0010157743
-0.06142358 0.013145524 -0.009705874 -0.108348876 0.08823922 -0.16587004 0.075666904 0.09868048
0.09725503 -0.15923749 0.012627211 -0.05001939 0.06907884 -0.095517665 -0.17000152 0.19281812
-0.10366406 -0.18588008 0.031773012 -0.11679204 -0.036315385 0.21395677 -0.06318819 0.06648684
0.01091363 0.079332106 -0.014020541 0.0023044182 0.056086197 0.02251142 -0.002007595 -0.054027114
-0.02540632 -0.01295492 0.024469925 0.030654358 -0.079091825 -0.059724312 0.035806343 -0.022908561
0.1866233 -0.13809952 0.009218205 0.0011260888 0.075272426 0.23706776 0.106457055 0.015715608
0.09207026 -0.14748316 0.12709428 -0.10844244 0.028930431 -0.05642841 0.1015106 -0.14057843
-0.099901415 -0.07299849 0.08416983 0.072544575 0.030435812 -0.02909446 0.1349792 -0.045688774
0.22898377 0.2016588 -0.060250416 0.1166905 0.22379827 0.019273842 -0.022830661 0.057180557
00000000: af09 9cbc be42 41bb 9858 153c d45c 2dbc
00000010: 1e78 22bb 5633 a4bc d2ad 05bc 492e 42bd
00000020: d5ff ddbc 5666 fbbc 7709 cbbc 9ad7 e73b
00000030: 97a3 bb3c d0be b9bd 1b20 cf3b b82a 023d
00000040: 6076 65bd fe4f 463d ccdb 333c 567f a73c
00000050: 55c3 81bd bf99 9abc 0f7d 9abe eb73 90bd
00000060: b429 b33d 5939 86bd 51a4 153e 8308 8c3d
00000070: c9ec 5f3d 9351 95bb 50ee 7b3d a43a b53d
00000080: bf79 64bc cb44 d6bd 67f6 a8bd b593 eabd
00000090: cbe4 1a3d d9e6 d4bc ab79 4d3d 27da 013c
000000a0: f0ae 64bd 94ce 56bb 1ace 703b 2ab6 13bd
000000b0: 826f 253c a037 8a3e dd81 80bd 59b4 9bbc
000000c0: 17f4 7c3c e6d5 36bc ee28 b0bc 2f81 c6bb
000000d0: 190f 53bd 35ac 483c 8164 703d f4cb 433c
000000e0: af3e 08bc af66 4cbd bbc3 5abc 3184 f13c
000000f0: 4882 43bd cb11 df3a b884 a83d 982f 20bc
00000100: 46cb 3dbd e188 783d 23e0 fdbc 5fbb 903c
00000110: 9396 573e df3f 5dbe f5e0 913d c2b9 a33c
00000120: 0cfd 213e 02cb acbd 8946 3bbe 7bec 3dbe
00000130: 1607 253d d1a5 c4bc 7a90 c8bd 0b7a d0bb
00000140: 8a39 853d 6276 54bd 5433 f1bd 59a5 013e
00000150: ab1e 9ebd 04dc 163e fc2f f93d a5eb 94bd
00000160: 5c33 febd c567 16bd 7722 fe3d 5f7e 4fbe
00000170: 1abb 013c 2fad 5e3b 242d ac3a e9a2 6b3b
00000180: 013b aebb 9753 88bb dd71 9939 b2e8 1e3b
00000190: 2d27 79ba d8e4 0dbc 83b9 663a c64d b8ba
000001a0: b132 f6ba dd9c b9bb 8a28 963b 2967 6bbb
000001b0: fb50 193c 4e88 753e d0a5 0abe 17d1 52be
000001c0: bd90 e63d cca9 183c 68c8 373e e5e2 7e3d
000001d0: 6a92 9cbd 7753 fb3d 98e8 1ebc 7b5a 233e
000001e0: 8ed2 3bbc 59b5 3f3e 5b99 473d 6818 553c
000001f0: c9f3 01be 827c d0bd 846b d4bd 8778 4abc
00000200: 7b01 403e 8335 0abd 7d4f b8bd fa88 743d
00000210: 818c 52be 20c7 11be cf70 bcbd 3486 293e
00000220: 1797 74be 8bd2 c4bd 9bd6 233b 4c79 d63b
00000230: 3c3f bcbb d98a 5d3b 26ae 193c da50 d9bb
00000240: c7df 1e3b 28da a737 8395 e7bb e53c 083c
00000250: 47ef 8abb 77fa 5abb 0a4c c2ba c697 833b
00000260: 28c3 9a3b 2a5a 653b e2ae a23b 71c2 c5bc
00000270: 21ba 1abd 627b a1bc 9052 0b3d 478e c7bb
00000280: eab9 bcbe 8590 0e3e bb0c 0abb f0eb 093e
00000290: 32e9 acbd 7a65 973c 6b33 913d e129 9c3d
000002a0: 5d33 e9bd a151 423d 8c17 c3bd c5d7 b13d
000002b0: a660 943d 6c94 2dbe f059 243d d34b dd3d
000002c0: b4a8 ffbc aa3d f7bd 538f 7b3e fa4d 67be
000002d0: 793b 00be 3693 ffbd 4637 86bb bb23 853a
000002e0: 4b97 7bbd 5360 573c 6305 1fbc 04e6 ddbd
000002f0: c4b6 b43d d6d9 29be 40f7 9a3d fe18 ca3d
00000300: a52d c73d 270f 23be 5de2 4e3c 22e1 4cbd
00000310: 3579 8d3d c49e c3bd e114 2ebe 1d72 453e
00000320: d34d d4bd 5957 3ebe 6b24 023d aa30 efbd
00000330: 71bf 14bd 7c17 5b3e cf68 81bd 412a 883d
00000340: 15cf 323c df78 a23d 69b6 65bc b905 173b
00000350: a4ba 653d df69 b83c db91 03bb 894b 5dbd
00000360: ea20 d0bc df40 54bc 2775 c83c d91e fb3c
00000370: e5fa a1bd 7ba1 74bd aca9 123d bcaa bbbc
00000380: 2e1a 3f3e f669 0dbe f407 173c 4599 933a
00000390: 6e28 9a3d e4c1 723e 2806 da3d 05be 803c
000003a0: 558f bc3d d305 17be 0125 023e 1217 debd
000003b0: 83ff ec3c 7a21 67bd cae4 cf3d cbf3 0fbe
000003c0: 1d99 ccbd 3b80 95bd 3b61 ac3d 4092 943d
000003d0: 8654 f93c 8157 eebc fd37 0a3e 2724 3bbd
000003e0: b97a 6a3e a57f 4e3e 24c9 76bd 6efb ee3d
000003f0: 602b 653e 2de4 9d3c 5e07 bbbc 2936 6a3d

final_layers.0.bias f4 [200]
0.028618919 -0.32142717 -0.27084267 -0.043389842 0.113250084 -0.09490057 -0.18505588 0.038229547
0.047392335 -0.089248516 0.0013960041 -0.20210262 0.11740922 -0.17728762 -0.05213761 0.10421752
-0.036057826 0.24195296 0.06834518 0.13438487 0.10199062 0.057881944 -0.17148809 -0.16032046
-0.21198392 0.1915154 0.24716626 -0.2802868 -0.014236873 0.1798011 -0.067343734 -0.13517118
0.1623116 -0.17584 -0.0027084718 0.011429716 0.05703669 -0.266445 0.09658859 -0.17765091
-0.28544587 -0.102401316 -0.22610001 0.20382304 0.11135002 -0.03274261 -0.22788031 -0.13313891
0.0844585 0.23371503 -0.20787764 -0.024222704 -0.14810541 0.0825785 0.16684252 -0.3391584
-0.0863803 -0.10691576 -0.09735191 -0.063382685 0.09204727 -0.038536005 -0.12257473 -0.08387429
0.10491722 -0.28946522 0.05482561 -0.28964207 0.015799537 -0.25190997 -0.049471043 -0.35855427
-0.07288949 -0.11753047 -0.08454155 0.068791695 -0.14227742 -0.17294557 0.06475077 0.11330474
0.045080647 -0.07453232 0.06072376 -0.13056704 0.0770527 -0.0919224 -0.04376181 -0.02609669
-0.25171083 0.28694692 0.06944394 -0.25130984 0.16234154 -0.107450016 0.0364086 -0.09004846
0.20227706 -0.09216909 0.07273093 -0.18199348 -0.009129923 0.009938641 0.16968821 -0.06559319
0.08400852 -0.02131529 0.14610294 0.10830784 -0.11684193 -0.059473895 0.18060768 -0.054044683
0.0037047649 -0.03052062 0.25310832 0.023257399 -0.08260526 0.008044318 -0.094835415 -0.093635045
0.03129795 -0.027397336 -0.33647314 0.033093672 -0.08688073 -0.3693247 -0.20932984 0.07973011
-0.05152475 0.17980301 0.054527823 -0.09002916 0.12970774 -0.064034276 -0.07205176 0.1099175
0.004182365 -0.23427291 0.2772156 -0.13913998 0.14713733 -0.077394634 -0.16781403 0.13185543
-0.28172255 -0.07279524 0.024865536 -0.0455988 -0.06684886 0.051532265 0.10338805 -0.09517527
-0.055292208 -0.11498766 0.0075976397 0.0035132063 -0.08404145 0.03874497 0.014326922 0.034817092
-0.053408317 0.102397636 -0.31765443 0.14429396 -0.19980782 -0.3431548 0.22444901 -0.015264717
0.11998344 -0.2935543 -0.18920484 0.1366724 0.14530152 -0.30994794 0.093174465 -0.05835781
-0.10747221 0.34485406 -0.10645814 -0.15351136 0.07524636 -0.06990892 0.18777834 0.11231028
-0.18907109 -0.09413961 0.13405202 0.095581844 -0.039828006 -0.0338776 -0.3576429 0.13852921
-0.23472175 -0.031196145 0.18358909 0.115996465 -0.12901181 -0.18145351 0.09960779 -0.01585104
00000000: 3972 ea3c 1a92 a4be e4ab 8abe 8cb9 31bd
00000010: a9ef e73d 3b5b c2bd 4a7f 3dbe 9696 1c3d
00000020: 771e 423d edc7 b6bd 20fa b63a fdf3 4ebe
00000030: 3f74 f03d e38a 35be 3f8e 55bd ff6f d53d
00000040: 5fb1 13bd 84c2 773e 8ff8 8b3d 309c 093e
00000050: 75e0 d03d 9e15 6d3d 939a 2fbe 0c2b 24be
00000060: 5012 59be 9d1c 443e 2719 7d3e c081 8fbe
00000070: c641 69bc c81d 383e 83eb 89bd 506a 0abe
00000080: 0335 263e 670f 34be 9e80 31bb b443 3b3c
00000090: 4e9f 693d 7b6b 88be 3dd0 c53d 1fea 35be
000000a0: f625 92be c8b7 d1bd c386 67be fdb6 503e
000000b0: 7b0b e43d 1d1d 06bd 7559 69be 9155 08be
000000c0: 94f8 ac3d fe52 6f3e e0dd 54be b16e c6bc
000000d0: f2a8 17be eb1e a93d c4d8 2a3e 2ba6 adbe
000000e0: 28e8 b0bd a6f6 dabd 7060 c7bd c8ce 81bd
000000f0: 4783 bc3d eed7 1dbd 7608 fbbd 49c6 abbd
00000100: d7de d63d c934 94be d290 603d f74b 94be
00000110: 086e 813c 58fa 80be 26a2 4abd 6d94 b7be
00000120: 1647 95bd d1b3 f0bd 1f24 adbd a9e2 8c3d
00000130: 2cb1 11be a518 31be 0d9c 843d 510c e83d
00000140: 7ca6 383d 67a4 98bd 7ab9 783d 5eb3 05be
00000150: cecd 9d3d d041 bcbd 953f 33bd bac8 d5bc
00000160: 3ee0 80be b5ea 923e a038 8e3d afab 80be
00000170: dc3c 263e c10e dcbd 2f21 153d 546b b8bd
00000180: b821 4f3e 26c3 bcbd f4f3 943d 805c 3abe
00000190: ac95 15bc afd5 223c bfc2 2d3e b955 86bd
000001a0: a90c ac3d 679d aebc 029c 153e 80d0 dd3d
000001b0: d24a efbd e69a 73bd 38f1 383e f55d 5dbd
000001c0: a4cb 723b 6106 fabc 6a97 813e 4d86 be3c
000001d0: f22c a9bd 51cc 033c 1239 c2bd bbc3 bfbd
000001e0: 4732 003d 6170 e0bc 3546 acbe 3b8d 073d
000001f0: 86ee b1bd 2118 bdbe 905a 56be 8a49 a33d
00000200: 9e0b 53bd 481e 383e 9158 5f3d 3561 b8bd
00000210: 1bd2 043e 6724 83bd e08f 93bd 6d1c e13d
00000220: 380c 893b 3de5 6fbe 34ef 8d3e b67a 0ebe
00000230: 2bab 163e 1481 9ebd 71d7 2bbe 1c05 073e
00000240: f03d 90be ac15 95bd cfb2 cb3c cfc5 3abd
00000250: 0ee8 88bd 7f13 533d 1dbd d33d 41eb c2bd
00000260: 157a 62bd a67e ebbd 9ff5 f83b d23d 663b
00000270: ec1d acbd 0cb3 1e3d 77bb 6a3c 5e9c 0e3d
00000280: aec2 5abd dab5 d13d 9aa3 a2be ccc1 133e
00000290: 6c9a 4cbe fcb1 afbe f6d5 653e dd18 7abc
000002a0: e1b9 f53d c04c 96be eabe 41be daf3 0b3e
000002b0: ecc9 143e 7fb1 9ebe 41d2 be3d 9908 6fbd
000002c0: 641a dcbd b690 b03e ba06 dabd 1532 1dbe
000002d0: c31a 9a3d 682c 8fbd f748 403e ef02 e63d
000002e0: da9b 41be 45cc c0bd ef44 093e 6ac0 c33d
000002f0: b122 23bd 3dc3 0abd f81c b7be 9ada 0d3e
00000300: e65a 70be 0f8f ffbc c7fe 3b3e 8e8f ed3d
00000310: ac1b 04be f3ce 39be 2bff cb3d 0ada 81bc

final_layers.3.weight f4 [200]
1.013938 0.97255725 0.9452219 0.9278446 1.0556059 0.9644356 1.0076935 0.982953
0.9685647 1.0119053 0.9495891 0.9699317 0.9642561 1.0428809 1.0439901 0.96441555
0.9649539 0.98398274 1.0256757 0.99550587 0.9340446 0.9569329 0.9646485 0.9792866
0.9727932 1.0159092 1.0621552 0.98942524 0.96353453 0.9755715 0.9308192 1.0487679
0.98253036 0.9599448 0.9478732 1.1046028 1.0346597 1.0212684 0.9973307 0.99267316
1.0123273 1.009593 0.93573403 0.9704881 1.0478847 0.9312237 0.90523297 0.9644667
0.955511 0.94500595 0.999268 0.9493261 0.94856423 1.0340698 1.0209463 0.95330334
0.9924878 0.9708319 0.96834165 1.0462061 1.0188068 0.94843125 0.9375826 1.065272
0.97762305 0.9759859 1.01538 0.99153495 0.9409179 0.9997218 0.9554008 1.0047873
0.96863383 1.0114057 0.94629866 1.0153358 0.98308563 1.0281295 0.9704073 0.97894937
1.0041549 1.0100185 0.9486205 0.9999613 0.9869679 1.0207386 0.96350956 1.0589463
0.96845526 1.0189015 0.94349563 1.0027645 0.95938736 1.0130342 1.0400463 0.94083625
0.93015265 0.9730207 1.0168754 0.9650103 1.0091219 0.9852627 1.0603856 0.9730625
1.0269015 0.9990813 0.9807311 0.96310216 0.9700666 0.9876219 0.95622885 0.97224313
1.0209479 0.99259794 0.9626777 0.9755686 1.0336845 0.97753066 0.98396343 0.97611266
1.0089929 0.92985547 1.0031581 0.96874064 0.99973136 1.0421983 0.94850355 1.0017016
0.94232976 1.0351471 0.99275446 0.99117845 0.95188177 0.9477066 0.9623596 1.0130926
0.9534716 1.023541 1.0131581 0.93864495 1.0942675 0.98300385 0.96398824 0.9857178
1.0249515 0.97268677 0.99431264 0.9164382 0.9575311 0.96767527 1.0318214 0.9569825
1.0205345 0.9521097 0.9995874 0.93755364 1.0233743 1.0367693 0.948035 1.0063076
0.9771211 0.95226043 0.99799174 1.0159158 1.0779345 0.9817956 1.0253639 0.96872455
0.95145893 0.9623696 1.0800934 1.0059077 1.01966 0.9557772 1.0209677 1.0336325
1.0566177 1.0919073 1.006975 0.94528836 1.0105867 0.9774675 0.96143025 0.9978665
0.96778107 0.9577237 1.0059513 0.9267227 1.0123658 1.0195793 0.99352866 1.0167463
0.99478006 0.96848613 0.9464717 0.99319625 0.96232617 0.9723973 1.0525764 0.9710834
00000000: b8c8 813f 83f9 783f 10fa 713f 3987 6d3f
00000010: 181e 873f 40e5 763f 1afc 803f cfa2 7b3f
00000020: dbf3 773f 1d86 813f 4518 733f 724d 783f
00000030: 7dd9 763f 1f7d 853f 78a1 853f f0e3 763f
00000040: 3807 773f 4be6 7b3f 5749 833f 79d9 7e3f
00000050: 8c1d 6f3f 8ef9 743f 34f3 763f 87b2 7a3f
00000060: fa08 793f 5009 823f b4f4 873f f94a 7d3f
00000070: 33aa 763f 0ebf 793f 2b4a 6e3f 073e 863f
00000080: 1c87 7b3f f1be 753f d1a7 723f a063 8d3f
00000090: bb6f 843f ecb8 823f 1151 7f3f d41f 7e3f
000000a0: f193 813f 583a 813f 448c 6f3f e871 783f
000000b0: 1621 863f ad64 6e3f 59bd 673f 4ae7 763f
000000c0: 5e9c 743f e9eb 713f 07d0 7f3f 0907 733f
000000d0: 1bd5 723f 665c 843f 5eae 823f b00b 743f
000000e0: ae13 7e3f 7088 783f 3de5 773f 15ea 853f
000000f0: 4368 823f 64cc 723f 6a05 703f d55a 883f
00000100: 8145 7a3f 36da 793f f9f7 813f 3cd5 7d3f
00000110: ffdf 703f c5ed 7f3f 2695 743f df9c 803f
00000120: 63f8 773f be75 813f a140 723f 86f6 813f
00000130: 80ab 7b3f bf99 833f 9d6c 783f 6d9c 7a3f
00000140: 2688 803f 4948 813f cbd8 723f 77fd 7f3f
00000150: eea9 7c3f 90a7 823f 90a8 763f 8d8b 873f
00000160: afec 773f 5d6b 823f ee88 713f 965a 803f
00000170: 699a 753f 1bab 813f 3d20 853f a5da 703f
00000180: 7c1e 6e3f e217 793f f928 823f ea0a 773f
00000190: e82a 813f 2d3a 7c3f b7ba 873f a01a 793f
000001a0: 8271 833f cbc3 7f3f 3211 7b3f dd8d 763f
000001b0: 4956 783f cad4 7c3f 6acb 743f ede4 783f
000001c0: 6cae 823f e61a 7e3f 0c72 763f ddbe 793f
000001d0: c64f 843f 733f 7a3f 07e5 7b3f 85e2 793f
000001e0: ae26 813f 020b 6e3f 7c67 803f 63ff 773f
000001f0: 65ee 7f3f c166 853f 21d1 723f c237 803f
00000200: 863c 713f b37f 843f 2825 7e3f dfbd 7d3f
00000210: 86ae 733f e69c 723f 335d 763f 05ad 813f
00000220: b716 743f 6403 833f 2aaf 813f 094b 703f
00000230: f510 8c3f 24a6 7b3f efc7 763f 0058 7c3f
00000240: 9c31 833f 0002 793f 468b 7e3f b29b 6a3f
00000250: c220 753f 91b9 773f b912 843f cefc 743f
00000260: e0a0 823f 76bd 733f f6e4 7f3f 8403 703f
00000270: eefd 823f dbb4 843f 6cb2 723f b0ce 803f
00000280: 9c24 7a3f 57c7 733f 637c 7f3f 8709 823f
00000290: c2f9 893f f556 7b3f 203f 833f 55fe 773f
000002a0: d092 733f db5d 763f 8040 8a3f 95c1 803f
000002b0: 3884 823f d1ad 743f 12af 823f 124e 843f
000002c0: 403f 873f 9ec3 8b3f 8fe4 803f 6bfe 713f
000002d0: e85a 813f 4f3b 7a3f 4b20 763f 2e74 7f3f
000002e0: 80c0 773f 612d 753f 03c3 803f b33d 6d3f
000002f0: 3495 813f 9381 823f e557 7e3f be24 823f
00000300: e8a9 7e3f b5ee 773f f84b 723f 1c42 7e3f
00000310: 025b 763f 08ef 783f d3ba 863f ec98 783f

final_layers.3.bias f4 [200]
0.10519722 -0.05202347 -0.07599873 0.091166794 0.0039550727 0.13019736 0.05438758 -0.07003311
0.12910812 -0.05807574 -0.072486825 -0.049390823 -0.045347366 -0.002452847 0.108192384 -0.00070959935
0.109271035 0.108186565 -0.00076900225 0.11607361 0.10302633 0.08558275 -0.064114094 -0.037104126
-0.09283768 0.081154406 0.09558595 -0.022697419 0.12453295 -0.05370051 -0.098340996 0.05387055
0.121783465 -0.102269486 0.081553474 0.027352251 0.11315209 -0.053611454 0.07436078 -0.03127565
0.0050934376 0.084469445 -0.06946009 0.13428691 0.013836281 -0.07007021 -0.04369501 0.07610475
-0.076704495 0.0938208 -0.06050345 0.118649244 -0.08766066 0.09805279 -0.009656027 -0.03824856
0.15339354 -0.06395119 -0.043676503 0.08600362 0.09747875 0.11511202 0.12055344 0.078160174
0.14081453 -0.085085504 0.024581976 -0.10414926 -0.07343573 -0.09747777 -0.075707056 0.15197243
-0.093047574 0.10415686 0.08414546 0.1086963 -0.098228164 -0.06994953 -0.07263971 -0.0021355555
-0.045613375 -0.12691966 0.13502961 -0.05731534 0.04389355 0.10628105 0.13424145 0.11881401
-0.056376185 0.11545882 -0.08462781 -0.09006472 0.09757778 0.09140187 0.100806355 -0.1010642
0.10940121 -0.070686825 0.10672455 -0.032670207 -0.07881233 -0.13018297 -0.032357626 -0.10646219
0.11087559 0.107245855 0.13357717 -0.05064163 -0.058081742 -0.08135754 0.093316406 -0.08642965
0.10509651 0.105853215 0.13534269 0.15081829 -0.036234204 0.14833187 -0.075506166 0.09370503
0.00818576 -0.0914671 -0.0954885 -0.056460552 -0.03253155 -0.04559664 -0.08218031 0.10846481
0.11089343 0.10059516 -0.0891096 -0.05863845 -0.041046824 -0.0920833 0.114695825 0.11037727
-0.09362118 0.11742655 0.1125259 -0.046612203 0.07793103 0.08495456 -0.090165146 0.118834645
-0.074086785 -0.06685016 -0.011994678 -0.02807239 -0.09255601 -0.024647586 0.09631234 -0.07647005
0.10327132 0.070602715 0.12241965 -0.09913605 -0.065700725 0.09256534 0.10450292 -0.05741486
-0.08569153 0.12812439 -0.03946425 0.09509131 0.054310784 -0.089272596 0.010228705 -0.065973684
0.10714125 -0.04079795 -0.20153692 -0.08244233 -0.0313727 -0.012495897 -0.008740674 0.08744964
0.031140782 0.11876179 0.09947247 -0.08373459 -0.02388525 -0.04634453 -0.023365472 0.101351716
-0.04816175 0.08459373 0.09806131 0.0826516 0.14935161 0.114328824 -0.027472587 -0.009069331
-0.038038656 0.07568615 -0.03270467 0.09669678 0.10644479 0.13571446 0.09134107 0.064750984
00000000: a471 d73d 9016 55bd 39a5 9bbd a8b5 ba3d
00000010: 8e99 813b 7552 053e 83c5 5e3d 856d 8fbd
00000020: eb34 043e d4e0 6dbd f973 94bd 084e 4abd
00000030: 29be 39bd f2bf 20bb f893 dd3d 6804 3aba
00000040: 7ec9 df3d eb90 dd3d de96 49ba 00b8 ed3d
00000050: 78ff d23d 0246 af3d 404e 83bd 7ffa 17bd
00000060: ae21 bebd 4834 a63d 91c2 c33d f0ef b9bc
00000070: 220b ff3d 11f5 5bbd 0167 c9bd 5ea7 5c3d
00000080: 9c69 f93d aa72 d1bd 8205 a73d d411 e03c
00000090: 48bc e73d af97 5bbd 774a 983d e51a 00bd
000000a0: dae6 a63b 51fe ac3d 1741 8ebd 8282 093e
000000b0: 92b1 623c f880 8fbd 8af9 32bd cfdc 9b3d
000000c0: 3f17 9dbd 1f25 c03d 77d2 77bd 60fe f23d
000000d0: 6f87 b3bd e7cf c83d 5034 1ebc 86aa 1cbd
000000e0: 3213 1d3e d7f8 82bd 22e6 32bd aa22 b03d
000000f0: f0a2 c73d dabf eb3d b9e4 f63d 7112 a03d
00000100: af31 103e 4f41 aebd 2460 c93c 354c d5bd
00000110: 7965 96bd 6da2 c7bd 4d0c 9bbd a99e 1b3e
00000120: ba8f bebd 3150 d53d 7454 ac3d 2a9c de3d
00000130: d92b c9bd b341 8fbd 21c4 94bd adf4 0bbb
00000140: 17d5 3abd 3af7 01be 3445 0a3e 7dc3 6abd
00000150: b9c9 333d e1a9 d93d 9776 093e c254 f33d
00000160: b7ea 66bd ac75 ec3d 5851 adbd da73 b8bd
00000170: dcd6 c73d e730 bb3d 9073 ce3d bffa cebd
00000180: be0d e03d 41c4 90bd 6792 da3d 32d1 05bd
00000190: 5c68 a1bd af4e 05be 6e89 04bd d908 dabd
000001a0: be12 e33d b7a3 db3d 74c8 083e 996d 4fbd
000001b0: 1fe7 6dbd c89e a6bd ac1c bf3d 0702 b1bd
000001c0: d73c d73d 92c9 d83d 4697 0a3e 1c70 1a3e
000001d0: 516a 14bd 4fe4 173e faa2 9abd 6ce8 bf3d
000001e0: 911d 063c 1a53 bbbd 7a8f c3bd 2e43 67bd
000001f0: cd3f 05bd 8bc3 3abd 264e a8bd cc22 de3d
00000200: 181c e33d d604 ce3d 187f b6bd df2e 70bd
00000210: b720 28bd 2b96 bcbd a5e5 ea3d 7a0d e23d
00000220: 76bc bfbd 557d f03d fb73 e63d 70ec 3ebd
00000230: 4e9a 9f3d a8fc ad3d 81a8 b8bd 945f f33d
00000240: d0ba 97bd bde8 88bd 5385 44bc 12f8 e5bc
00000250: 018e bdbd bce9 c9bc 673f c53d 549c 9cbd
00000260: ea7f d33d 2898 903d 27b7 fa3d d707 cbbd
00000270: 1a8e 86bd e692 bd3d a005 d63d d82b 6bbd
00000280: 0a7f afbd 0a33 033e 44a5 21bd 3cbf c23d
00000290: fc74 5e3d 8dd4 b6bd 4c96 273c 361d 87bd
000002a0: df6c db3d c01b 27bd b25f 4ebe 86d7 a8bd
000002b0: a980 00bd 97bb 4cbc 0b35 0fbc cc18 b33d
000002c0: f41a ff3c 6239 f33d 39b8 cb3d 0a7d abbd
000002d0: 00ab c3bc c3d3 3dbd f268 bfbc 7d91 cf3d
000002e0: 4145 45bd 7a3f ad3d 5ed4 c83d 3e45 a93d
000002f0: a1ef 183e 3b25 ea3d 310e e1bc 8897 14bc
00000300: 6cce 1bbd 5701 9b3d 55f5 05bd f608 c63d
00000310: baff d93d bbf8 0a3e 0711 bb3d 2a9c 843d

final_layers.3.running_mean f4 [200]
0.18746266 0.09530454 0.053766467 0.2358315 0.11445056 0.2793788 0.055303544 0.21861583
0.51354426 0.11722114 0.26238975 0.11273168 0.529317 0.037455484 0.17299053 0.31814831
0.14898938 0.39757496 0.16667314 0.27122268 0.25024554 0.34667444 0.052822847 0.08203517
0.14603753 0.43170592 0.3117182 0.062001225 0.23451206 0.46169335 0.28356832 0.058386385
0.3966071 0.17370573 0.4325161 0.12748833 0.34537005 0.0666967 0.27579314 0.046136465
0.0119295325 0.04780912 0.2448903 0.2964298 0.17068204 0.1598961 0.09031038 0.21900801
0.35394245 0.33237746 0.0708721 0.20306112 0.0983042 0.22469509 0.16901572 0.049263526
0.18793559 0.2074355 0.101254456 0.11197197 0.3604524 0.2776668 0.15198459 0.101511
0.37482977 0.12311725 0.12271179 0.08550146 0.31492326 0.0653027 0.16879958 0.049820147
0.2703483 0.074669085 0.28568214 0.2485794 0.116690025 0.08454563 0.41253617 0.11630428
0.13009985 0.20462671 0.24039787 0.08445265 0.34157345 0.085394986 0.13476107 0.07308107
0.03177343 0.40340683 0.3426155 0.08511505 0.4978215 0.14910059 0.29897067 0.27083746
0.4928119 0.12767556 0.25566706 0.09990889 0.15792823 0.19879977 0.14099061 0.16213909
0.28972188 0.13996026 0.22681153 0.40505642 0.24006042 0.24284688 0.31974176 0.1758919
0.29469314 0.3152429 0.33714533 0.32801265 0.13701122 0.36952013 0.10876602 0.3384134
0.09863044 0.27293098 0.07107388 0.27940258 0.115433894 0.0067636594 0.073166296 0.21443954
0.26579973 0.41692454 0.35496342 0.07103844 0.5410754 0.20772709 0.23554972 0.17400135
0.22574574 0.036511917 0.3312865 0.11470948 0.21349187 0.20506023 0.068637796 0.4559925
0.035879437 0.12645298 0.18296339 0.12665936 0.21970557 0.1427517 0.17758778 0.18931998
0.17257413 0.33477008 0.20558384 0.2596342 0.103624105 0.2556159 0.33322823 0.14380722
0.18772715 0.28214556 0.051951688 0.36582154 0.052669026 0.03981512 0.20385392 0.16567229
0.2460101 0.090565234 0.020441277 0.2704107 0.16417636 0.13470674 0.16010846 0.21208052
0.09571091 0.3216365 0.19189736 0.24728 0.102915265 0.3166864 0.38207495 0.30212772
0.1307055 0.14697912 0.3812316 0.44092503 0.2253408 0.08347348 0.052410696 0.135297
0.085753225 0.28465155 0.33495772 0.2665671 0.26597917 0.13758487 0.25748703 0.19861414
00000000: 36f6 3f3e 072f c33d 3a3a 5c3d d07d 713e
00000010: 0e65 ea3d bd0a 8f3e f885 623d d4dc 5f3e
00000020: a377 033f a311 f03d f357 863e dedf e63d
00000030: 5281 073f ec6a 193d 6e24 313e 56e4 a23e
00000040: ac90 183e f28e cb3e 5dac 2a3e b3dd 8a3e
00000050: 2f20 803e 507f b13e c55c 583d 0e02 a83d
00000060: dd8a 153e 8f08 dd3e 8799 9f3e fff4 7d3d
00000070: ee23 703e 1263 ec3e de2f 913e 9026 6f3d
00000080: 1610 cb3e eadf 313e c072 dd3e 4d8c 023e
00000090: 58d4 b03e 4898 883d c234 8d3e 97f9 3c3d
000000a0: 1674 433c 7fd3 433d 86c4 7a3e a6c5 973e
000000b0: 46c7 2e3e cebb 233e a6f4 b83d a343 603e
000000c0: f237 b53e 612d aa3e 6425 913d 41ef 4f3e
000000d0: b653 c93d 7816 663e 7512 2d3e 8dc8 493d
000000e0: 3072 403e f969 543e 7f5e cf3d 8f51 e53d
000000f0: 388d b83e 582a 8e3e d9a1 1b3e 00e5 cf3d
00000100: b0e9 bf3e e624 fc3d 5250 fb3d 641b af3d
00000110: 9f3d a13e 6cbd 853d ccd9 2c3e 3610 4c3d
00000120: 186b 8a3e 1bec 983d ee44 923e 998b 7e3e
00000130: 2efb ee3d 4226 ad3d f137 d33e f030 ee3d
00000140: e538 053e aa89 513e dc2a 763e 83f5 ac3d
00000150: b7e2 ae3e 91e3 ae3d cefe 093e 87ab 953d
00000160: db24 023d 578b ce3e 4c6b af3e cd50 ae3d
00000170: 76e2 fe3e d3ad 183e af12 993e 35ab 8a3e
00000180: d751 fc3e 62bd 023e cbe6 823e 089d cc3d
00000190: f0b7 213e 2b92 4b3e d85f 103e ca07 263e
000001a0: 6d56 943e be51 0f3e 4841 683e 8e63 cf3e
000001b0: 66d2 753e daac 783e 31b5 a33e 021d 343e
000001c0: 05e2 963e 8467 a13e 509e ac3e 46f1 a73e
000001d0: ab4c 0c3e be31 bd3e b8c0 de3d 8544 ad3e
000001e0: c2fe c93d 9cbd 8b3e 2f8f 913d db0d 8f3e
000001f0: 9b68 ec3d b0a1 dd3b 36d8 953d 0a96 5b3e
00000200: e716 883e 2277 d53e c4bd b53e 9a7c 913d
00000210: eb83 0a3f 69b6 543e f233 713e 692d 323e
00000220: e429 673e 858d 153d 629e a93e ceec ea3d
00000230: 9d9d 5a3e 4ffb 513e f991 8c3d d977 e93e
00000240: 51f6 123d e47c 013e c15a 3b3e feb2 013e
00000250: 7ffa 603e 802d 123e 92d9 353e 19dd 413e
00000260: 46b7 303e fc66 ab3e 9284 523e c6ee 843e
00000270: e038 d43d 16e0 823e e49c aa3e 3342 133e
00000280: 8c3b 403e 6275 903e 4bcb 543d f64c bb3e
00000290: 7abb 573d 2e15 233d 15bf 503e ffa5 293e
000002a0: 12ea 7b3e 447a b93d 7774 a73c 4573 8a3e
000002b0: d91d 283e 90f0 093e 79f3 233e a32b 593e
000002c0: 1504 c43d 8aad a43e be80 443e f836 7d3e
000002d0: 3dc5 d23d b824 a23e 549f c33e 7cb0 9a3e
000002e0: aad7 053e b281 163e ca30 c33e edc0 e13e
000002f0: bdbf 663e 25f4 aa3d 99ac 563d 4c8b 0a3e
00000300: 639f af3d d9bd 913e 947f ab3e 7c7b 883e
00000310: 6c2e 883e 0ce3 0c3e 57d5 833e 8161 4b3e

final_layers.3.running_var f4 [200]
0.07669555 0.1011341 0.062751465 0.28134167 0.19883442 0.2760759 0.011334065 0.30158457
0.71346694 0.22381431 0.3672584 0.17784883 0.8666216 0.05624031 0.1453035 0.31224087
0.10035726 0.41345167 0.30788794 0.20088811 0.15544578 0.37848252 0.0628559 0.15700457
0.23762633 0.44876885 0.20662567 0.12135842 0.26577276 0.70346755 0.40233684 0.010670547
0.598698 0.29294813 0.62464565 0.23677194 0.27952644 0.13130729 0.2985651 0.07406739
0.010038575 0.007708487 0.30590215 0.34278855 0.2542006 0.23729585 0.2025319 0.23801424
0.5704771 0.3022904 0.13472387 0.16850878 0.10212807 0.09267702 0.15540092 0.091520086
0.15852647 0.28750405 0.15181263 0.029745685 0.32705593 0.2658505 0.17021847 0.025028745
0.48512954 0.1508155 0.15113153 0.14303552 0.33138797 0.09125921 0.24927092 0.03598716
0.38802946 0.026606092 0.36929858 0.16764534 0.14151233 0.13619076 0.68355423 0.13308266
0.18730764 0.3273185 0.2425047 0.124260135 0.3819903 0.12209647 0.09647137 0.05905795
0.018318595 0.3411152 0.43314204 0.09828486 0.8635862 0.07730343 0.26282188 0.31590158
0.49313796 0.24561912 0.18361191 0.2237633 0.21035103 0.22143562 0.11197292 0.18917093
0.28870013 0.09499193 0.15150538 0.622954 0.3587698 0.45715517 0.33126312 0.1971741
0.23292427 0.42000738 0.31237242 0.41161066 0.23814665 0.30528975 0.18316577 0.38056844
0.15478821 0.39633128 0.09855237 0.40814412 0.18635644 0.005240955 0.085262075 0.13949883
0.2818736 0.4402459 0.58395225 0.10879634 0.84977925 0.2739727 0.24698617 0.09069591
0.26596922 0.07402114 0.22772713 0.19121185 0.090296894 0.18302147 0.10436499 0.5917879
0.025583059 0.20691065 0.36134824 0.18886031 0.28506348 0.15898874 0.11155824 0.24676293
0.123010285 0.49351308 0.19342247 0.34554833 0.15750298 0.15264069 0.3751624 0.18173909
0.2604367 0.23609637 0.1054665 0.36790326 0.011020098 0.06100997 0.19231288 0.16273521
0.20085986 0.08498212 0.0071996744 0.3811131 0.14831851 0.19787456 0.22210628 0.14041565
0.19672738 0.21521176 0.17067552 0.40056145 0.13440533 0.42599866 0.59575284 0.20707554
0.29358244 0.1032038 0.35319066 0.51409024 0.2998047 0.08077688 0.1063099 0.097446315
0.16329348 0.2884116 0.36496875 0.19112584 0.30327338 0.09890015 0.12779565 0.17448787
00000000: 8e12 9d3d 651f cf3d d783 803d 040c 903e
00000010: 409b 4b3e d259 8d3e 84b2 393c 4b69 9a3e
00000020: c5a5 363f 942f 653e 4b09 bc3e 011e 363e
00000030: eada 5d3f 3d5c 663d 71ca 143e 09de 9f3e
00000040: 1b88 cd3d f0af d33e 7da3 9d3e 9db5 4d3e
00000050: 2e2d 1f3e 76c8 c13e 98ba 803d cec5 203e
00000060: 5154 733e 08c5 e53e ae95 533e c38a f83d
00000070: 5e13 883e 7316 343f 18ff cd3e 85d3 2e3c
00000080: 4644 193f 4cfd 953e c7e8 1f3f 5874 723e
00000090: 171e 8f3e 6b75 063e 86dd 983e a5b0 973d
000000a0: d678 243c 7a97 fc3b 359f 9c3e fb81 af3e
000000b0: 9526 823e affd 723e 8664 4f3e 01ba 733e
000000c0: ca0a 123f cfc5 9a3e 0ef5 093e 918d 2c3e
000000d0: 8628 d13d 73cd bd3d 6b21 1f3e e26e bb3d
000000e0: c354 223e bb33 933e c574 1b3e 39ad f33c
000000f0: e073 a73e 8f1d 883e c04d 2e3e 1509 cd3c
00000100: e662 f83e 616f 1a3e 39c2 1a3e e777 123e
00000110: afab a93e 1ce6 ba3d e040 7f3e 4667 133d
00000120: ccab c63e 05f5 d93c b414 bd3e 38ab 2b3e
00000130: 9ce8 103e 9775 0b3e 69fd 2e3f d246 083e
00000140: 93cd 3f3e 4a96 a73e 2753 783e 197c fe3d
00000150: 3c94 c33e b70d fa3d c892 c53d c0e6 713d
00000160: e110 963c a7a6 ae3e cbc4 dd3e 9349 c93d
00000170: fc13 5d3f 4351 9e3d 9790 863e dabd a13e
00000180: 947c fc3e 9483 7b3e c304 3c3e 3522 653e
00000190: 4366 573e 05c0 623e 0f52 e53d 06b6 413e
000001a0: 81d0 933e 218b c23d 3a24 1b3e ea79 1f3f
000001b0: adb0 b73e 3e10 ea3e 529b a93e 02e8 493e
000001c0: b383 6e3e 350b d73e 47ef 9f3e a2be d23e
000001d0: b7dc 733e f04e 9c3e cf8f 3b3e ded9 c23e
000001e0: cd80 1e3e efeb ca3e d3d5 c93d 44f8 d03e
000001f0: 39d4 3e3e 51bc ab3b e29d ae3d c8d8 0e3e
00000200: bd51 903e e967 e13e e57d 153f 9ed0 de3d
00000210: 228b 593f 2646 8c3e f1e9 7c3e c7be b93d
00000220: 1e2d 883e 6598 973d 4d31 693e 0acd 433e
00000230: 94ed b83d fb69 3b3e 50bd d53d 697f 173f
00000240: 9093 d13c 63e0 533e a302 b93e 9964 413e
00000250: d7f3 913e f2cd 223e a678 e43d 6caf 7c3e
00000260: d1ec fb3d bfad fc3e 8a10 463e b6eb b03e
00000270: 7648 213e d74d 1c3e 4915 c03e d019 3a3e
00000280: f657 853e 3fc3 713e d2fe d73d d15d bc3e
00000290: a48d 343c 97e5 793d abed 443e 0fa4 263e
000002a0: 35ae 4d3e 1b0b ae3d 3feb eb3b 4221 c33e
000002b0: cfe0 173e a19f 4a3e d46f 633e 1fc9 0f3e
000002c0: e772 493e 7960 5c3e 90c5 2e3e 6416 cd3e
000002d0: 8da1 093e 7f1c da3e 4283 183f 9c0b 543e
000002e0: 7050 963e 845c d33d 68d5 b43e 6b9b 033f
000002f0: 0080 993e 596e a53d 01b9 d93d ef91 c73d
00000300: 6836 273e afaa 933e 2fdd ba3e 7eb6 433e
00000310: a646 9b3e 298c ca3d dddc 023e f3ac 323e

final_layers.4.weight f4 [100, 200]
-0.027615871 0.095024295 -0.0055770366 0.02952238 0.07320617 -0.031441867 -0.025925327 0.03377247
-0.028176857 -0.017872555 0.030097406 0.0594382 -0.033465818 0.06960766 -0.07968324 -0.07729614
-0.14630118 -0.081434004 -0.04605382 -0.056040414 -0.009161792 0.03400105 0.013503132 0.0015901508
0.08816869 -0.070740834 -0.033985715 0.031979185 0.013811483 0.07120857 -0.05291156 -0.040515065
0.010063454 0.023539897 0.015493288 0.014367106 -0.100436576 0.05151273 -0.1021854 0.050076418
0.115234815 0.016525818 0.031130338 -0.06865473 -0.012202806 0.04294815 -0.0007455717 9.565422e-05
0.04394487 -0.038726524 0.018997211 -0.01211956 0.07393463 0.0050637177 0.034546614 0.05499358
-0.17736885 0.11177204 -0.027429977 -0.004603308 -0.07544159 0.04176439 0.020743916 0.03323686
0.040367164 0.05939276 0.025764663 0.09140422 -0.009776857 0.049104806 0.03717304 -0.07875749
-0.00528366 0.02492646 -0.018802222 -0.09751646 0.016472308 0.05655764 -0.016108844 0.0022783058
-0.02566479 0.04425791 -0.08101606 0.017500434 -0.015002968 0.008796035 -0.0053227046 -0.12486649
0.06313321 -0.07911047 0.011901295 -0.0019368877 -0.031352244 -0.025229448 -0.049099226 0.04307211
5.9014135e-05 0.035236474 -0.10723125 -0.04332303 0.071628384 0.015816994 0.020168986 0.030068371
0.007822913 -0.10677148 -0.037577294 -0.01816986 0.009023024 -0.012061584 -0.0049383854 0.043039054
-0.08505136 0.035596028 -0.014993564 0.063235275 0.104110576 -0.08453126 0.03611148 -0.029140567
-0.025267577 0.03860999 0.041964866 0.0058453623 0.018739074 0.05072053 0.04148188 -0.07122462
-0.121313535 -0.001508874 0.04613372 0.04203729 0.003120391 0.036770433 -0.15720028 -0.09279635
-0.027272837 -0.05155487 -0.14480598 0.069548585 0.0025120666 -0.0386012 -0.014187143 0.018341452
0.11870083 -0.019192025 0.09157876 -0.010986345 0.042288065 0.004239081 -0.0568889 0.068409584
0.004046632 0.06105035 0.03320155 0.045062914 0.023558365 -0.018423762 0.037188087 0.07260914
0.01015702 -0.11490664 0.06741736 -0.033151228 -0.05414289 0.030554328 0.060144376 0.0007836334
-0.06203858 0.038774796 0.0877853 0.043074675 0.027093306 -0.01650246 0.024763666 -0.07282466
0.044492383 -0.0663516 0.009137108 0.08211065 -0.0502084 -0.019310407 0.016003191 -0.11623808
-0.031411853 0.011493815 0.0021001094 -0.014865406 0.008131219 -0.0066292635 0.04256137 0.016973503
0.018429833 0.041992415 0.032167688 -0.065440096 0.010256708 -0.031668574 -0.06460695 0.0733022
-0.0370723 0.049543977 0.03806202 0.022607833 0.0058003077 -0.022899792 0.014493003 0.09186775
0.024653574 0.027129887 0.075105116 0.0020821071 0.03089479 0.026109228 0.01689021 -0.011514784
-0.11189594 0.020341989 0.024993239 -0.05544471 -0.070391215 0.02454149 0.03338172 -0.0021503617
-0.021557016 -0.0018298212 -0.083016865 0.06098073 -0.09525328 0.07022414 -0.021584697 -0.052928694
0.014198108 -0.005879735 -0.031854354 0.01925118 -0.053906657 0.049267747 -0.02982397 -0.02450941
0.019963164 0.0034056306 0.021463789 -0.07669519 -0.010024266 0.08121968 0.06808339 0.013631282
0.0058203805 -0.0023841392 -0.0062561682 -0.003135546 -0.034784764 -0.07639875 0.058372688 -0.024912557
00000000: ae3a e2bc 199c c23d 93bf b6bb ebd8 f13c
00000010: 1eed 953d 30c9 00bd 5a61 d4bc 0055 0a3d
00000020: 27d3 e6bc 7769 92bc d68e f63c 7875 733d
00000030: 7413 09bd 768e 8e3d f730 a3bd 704d 9ebd
00000040: facf 15be dfc6 a6bd eea2 3cbd a28a 65bd
00000050: 571b 16bc af44 0b3d 3e3c 5d3c 9b6c d03a
00000060: c991 b43d 92e0 90bd 9b34 0bbd 9bfc 023d
00000070: 8f49 623c ccd5 913d cbb9 58bd 20f3 25bd
00000080: 2fe1 243c bed6 c03c 8fd7 7d3c 0364 6b3c
00000090: b1b1 cdbd 03ff 523d 9446 d1bd ee1c 4d3d
000000a0: 3b00 ec3d 2761 873c 0d05 ff3c da9a 8cbd
000000b0: 47ee 47bc 66ea 2f3d 7872 43ba f899 c838
000000c0: 89ff 333d b49f 1ebd 0aa0 9b3c 1e91 46bc
000000d0: 0a6b 973d 8bed a53b c080 0d3d f340 613d
000000e0: 2ea0 35be bde8 e43d d5b4 e0bc 59d7 96bb
000000f0: 1f81 9abd 2311 2b3d 25ef a93c 6023 083d
00000100: 0a58 253d d345 733d 6a10 d33c 2332 bb3d
00000110: 1c2f 20bc 1f22 493d c242 183d 9b4b a1bd
00000120: 8d22 adbb 9332 cc3c 1e07 9abc b6b6 c7bd
00000130: eff0 863c fca8 673d b2f6 83bc a14f 153b
00000140: f73e d2bc c847 353d c0eb a5bd 125d 8f3c
00000150: 02cf 75bc 3f1d 103c 156a aebb 01ba ffbd
00000160: fc4b 813d ac04 a2bd a6fd 423c 2bdf fdba
00000170: 366b 00bd fdad cebc 451c 49bd 616c 303d
00000180: f285 7738 1f54 103d 0f9c dbbd 7d73 31bd
00000190: e7b1 923d a492 813c 6e39 a53c f251 f63c
000001a0: ad2b 003c 01ab dabd a6ea 19bd f5d8 94bc
000001b0: 4ed5 133c f39d 45bc 2ed2 a1bb b849 303d
000001c0: 682f aebd 24cd 113d 91a7 75bc 7f81 813d
000001d0: ed37 d53d ba1e adbd a2e9 133d 33b8 eebc
000001e0: f3fd cebc 8225 1e3d 5ae3 2b3d 748a bf3b
000001f0: b082 993c 55c0 4f3d e7e8 293d 37de 91bd
00000200: 3b73 f8bd 69c5 c5ba b6f6 3c3d 4b2f 2c3d
00000210: 797f 4c3b 989c 163d 1cf9 20be 030c bebd
00000220: 496b dfbc 332b 53bd 0548 14be 7d6f 8e3d
00000230: 7ca1 243b 4b1c 1ebd 3171 68bc d040 963c
00000240: 6c19 f33d 9838 9dbc a58d bb3d 1200 34bc
00000250: 4036 2d3d fde7 8a3b 5604 69bd 531a 8c3d
00000260: 9c99 843b ef0f 7a3d 59fe 073d e493 383d
00000270: 79fd c03c 6eed 96bc 8952 183d 1ab4 943d
00000280: a169 263c 2c54 ebbd 1d12 8a3d 95c9 07bd
00000290: efc4 5dbd 124d fa3c f359 763d bf6c 4d3a
000002a0: 2b1c 7ebd 52d2 1e3d c8c8 b33d 126f 303d
000002b0: c8f2 dd3c 2b30 87bc 2cdd ca3c 1825 95bd
000002c0: a53d 363d 59e3 87bd cfb3 153c a129 a83d
000002d0: 53a7 4dbd dc30 9ebc 2019 833c 3b0e eebd
000002e0: b7a9 00bd 8e50 3c3c fda1 093b 088e 73bc
000002f0: ce38 053c 4b3a d9bb d554 2e3d 040c 8b3c
00000300: 29fa 963c 3d00 2c3d 44c2 033d 7505 86bd
00000310: c00b 283c e8b6 01bd a650 84bd 771f 963d
00000320: 20d9 17bd a0ee 4a3d ece6 1b3d 1034 b93c
00000330: 8210 be3b 5898 bbbc 0f74 6d3c 2925 bc3d
00000340: 4bf6 c93c 7f3f de3c b6d0 993d f673 083b
00000350: 1217 fd3c 05e3 d53c 565d 8a3c 81a8 3cbc
00000360: b329 e5bd 3ea4 a63c 9fbe cc3c fe19 63bd
00000370: 4529 90bd 3c0b c93c 45bb 083d 15ed 0cbb
00000380: 5798 b0bc 9cd6 efba bf04 aabd eec6 793d
00000390: 2714 c3bd add1 8f3d 64d2 b0bc c2cb 58bd
000003a0: 2e9f 683c cbaa c0bb b679 02bd a7b4 9d3c
000003b0: 3acd 5cbd facc 493d 6651 f4bc f5c7 c8bc
000003c0: ca89 a33c 0031 5f3b d4d4 af3c 5e12 9dbd
000003d0: d23c 24bc 8156 a63d 4e6f 8b3d be55 5f3c
000003e0: e4b8 be3b 383f 1cbb 8b00 cdbb bc7d 4dbb
000003f0: 787a 0ebd f376 9cbd 3318 6f3d 6b15 ccbc

final_layers.4.bias f4 [100]
-0.14612299 -0.015973272 -0.048461217 -0.067872114 -0.04774356 -0.0037963123 -0.13214064 -0.010560605
0.016922265 -0.006754402 -0.028044902 -0.07136909 -0.047144957 -0.0232976 -0.029207129 -0.14114088
0.077703744 -0.016814698 -0.03831403 -0.029897166 -0.16000867 -0.098407716 -0.12429858 0.048089236
-0.022359628 -0.14025645 0.040372264 -0.022191605 -0.086539716 -0.017932687 0.020897593 -0.09330055
-0.0021336116 0.0066308486 -0.10050165 -0.12713091 -0.054041546 -0.12624986 -0.031206775 -0.07276827
-0.03594032 -0.06474911 0.06013539 0.00765132 -0.04927973 0.026057744 -0.23258823 -0.011749084
0.065910794 0.024280984 -0.11397948 -0.13266864 -0.17622009 -0.07746948 0.004156097 -0.16595277
-0.07459011 -0.03944533 -0.2277312 -0.05880117 0.059783835 0.13461392 -0.045091204 -0.05931539
-0.1000129 -0.028522842 -0.11223203 -0.16940019 0.046436884 -0.039710175 -0.0075804265 0.023692377
0.04663245 0.047423862 0.013388145 -0.05562254 -0.12047513 -0.025006663 0.011582266 -0.13757688
-0.050591677 0.042532656 -0.028165994 -0.21929203 0.018088413 0.037898622 -0.021811876 0.030871352
-0.19055267 -0.084421895 0.05078017 0.0051902295 0.0153980255 -0.028810885 0.016172405 -0.014916457
-0.12677114 -0.032163136 -0.0467683 -0.016478287
00000000: 44a1 15be 61da 82bc 457f 46bd 8900 8bbd
00000010: c08e 43bd 8dcb 78bb e04f 07be 6306 2dbc
00000020: 90a0 8a3c 0854 ddbb 6cbe e5bc f529 92bd
00000030: 121b 41bd 9cda bebc ca43 efbc 3c87 10be
00000040: 2423 9f3d fabe 89bc 2cef 1cbd e7ea f4bc
00000050: 50d9 23be fc89 c9bd 4190 febd 38f9 443d
00000060: 8a2b b7bc 639f 0fbe 635d 253d 2bcb b5bc
00000070: bc3b b1bd 92e7 92bc 6e31 ab3c 5c14 bfbd
00000080: 10d4 0bbb 9747 d93b cfd3 cdbd 9b2e 02be
00000090: ab5a 5dbd a547 01be 5aa5 ffbc 8807 95bd
000000a0: 2836 13bd 2e9b 84bd 8750 763d edb7 fa3b
000000b0: 8bd9 49bd 0d77 d53c 9c2b 6ebe 3b7f 40bc
000000c0: 3dfc 863d eae8 c63c 136e e9bd 4ada 07be
000000d0: 0a73 34be 52a8 9ebd de2f 883b 86ef 29be
000000e0: b3c2 98bd 6d91 21bd 5e32 69be 7fd9 70bd
000000f0: e5df 743d 3bd8 093e 8eb1 38bd b2f4 72bd
00000100: 90d3 ccbd bca8 e9bc e8d9 e5bd 3e77 2dbe
00000110: 9a34 3e3d 23a7 22bd 3a65 f8bb 8416 c23c
00000120: ab01 3f3d 863f 423d f359 5b3c 76d4 63bd
00000130: aabb f6bd c6da ccbc 8bc3 3d3c f4e0 0cbe
00000140: 3839 4fbd b936 2e3d 5fbc e6bc 178e 60be
00000150: 272e 943c 963b 1b3d d2ae b2bc ebe5 fc3c
00000160: 3d20 43be 63e5 acbd defe 4f3d cd12 aa3b
00000170: 0048 7c3c ce04 ecbc fe7b 843c 2864 74bc
00000180: 4bd0 01be 7ebd 03bd 1e90 3fbd 79fd 86bc

final_layers.7.weight f4 [100]
0.92388666 0.8968011 0.9442059 0.7138801 0.93933696 0.7220445 0.91339564 0.7397448
0.8552804 0.724056 0.69478506 0.9343863 0.717143 0.6711972 0.69613665 0.919861
0.7717422 0.7254235 0.8745219 0.9178152 0.9185504 0.91897154 0.91556376 0.7059204
0.7262391 0.92563844 0.6969846 0.93935287 0.689726 0.70810294 0.68996847 0.9442473
0.7354632 0.67066795 0.90211046 0.9452652 0.89976394 0.9495847 0.9270577 0.93534607
0.9138759 0.90482146 0.72533894 0.708536 0.7223189 0.7785969 0.9091397 0.9226753
0.7520728 0.7816711 0.91107494 0.912655 0.92620134 0.9312761 0.7840818 0.90900147
0.72629195 0.71771353 0.9026319 0.9320591 0.77304375 0.78707457 0.691878 0.6926147
0.93570954 0.93458456 0.9145469 0.91971016 0.72970814 0.68286914 0.67163485 0.72906697
0.73019385 0.72970045 0.73373526 0.68624943 0.9367508 0.6946341 0.7207335 0.93966967
0.6603416 0.7237981 0.7227506 0.9073069 0.7240323 0.7191112 0.88697183 0.6970117
0.9053605 0.7524195 0.70810467 0.7907122 0.7152214 0.71719754 0.7390029 0.721654
0.9506071 0.6900623 0.6898743 0.7085807
00000000: d683 6c3f c294 653f 7ab7 713f d9c0 363f
00000010: 6378 703f e9d7 383f 4cd4 693f ea5f 3d3f
00000020: a8f3 5a3f bc5b 393f 6fdd 313f f133 6f3f
00000030: af96 373f 94d3 2b3f 0336 323f 037c 6b3f
00000040: e690 453f 5bb5 393f abe0 5f3f f0f5 6a3f
00000050: 1e26 6b3f b841 6b3f 6362 6a3f 33b7 343f
00000060: ceea 393f a4f6 6c3f 956d 323f 6e79 703f
00000070: e291 303f 3c46 353f c6a1 303f 31ba 713f
00000080: 5147 3c3f e5b0 2b3f b6f0 663f e6fc 713f
00000090: ee56 663f fc17 733f a753 6d3f d772 6f3f
000000a0: c5f3 693f 61a2 673f d0af 393f 9e62 353f
000000b0: e4e9 383f 2052 473f 61bd 683f 7334 6c3f
000000c0: d887 403f 991b 483f 353c 693f c2a3 693f
000000d0: 881b 6d3f 1c68 6e3f 96b9 483f 52b4 683f
000000e0: 45ee 393f 13bc 373f e212 673f 6d9b 6e3f
000000f0: 32e6 453f b87d 493f eb1e 313f 324f 313f
00000100: a98a 6f3f ef40 6f3f bf1f 6a3f 2072 6b3f
00000110: 27ce 3a3f 83d0 2e3f 43f0 2b3f 22a4 3a3f
00000120: fced 3a3f a6cd 3a3f 13d6 3b3f 0bae 2f3f
00000130: e7ce 6f3f 8ad3 313f fe81 383f 318e 703f
00000140: 260c 293f d54a 393f 2f06 393f 4445 683f
00000150: 2e5a 393f ac17 383f 9610 633f 5c6f 323f
00000160: b5c5 673f 909e 403f 5946 353f 1d6c 4a3f
00000170: c018 373f 429a 373f 4b2f 3d3f 51be 383f
00000180: fd5a 733f eca7 303f 9a9b 303f 8b65 353f

final_layers.7.bias f4 [100]
0.32261056 0.29742372 0.28278732 -0.31887385 0.28968316 -0.34176457 0.33330142 -0.30847606
-0.3640839 -0.3439151 -0.33121073 0.3017742 -0.33489022 -0.35077217 -0.31446606 0.3357946
-0.35409647 -0.32322177 0.3468704 0.30524555 0.3176251 0.31862745 0.2979473 -0.31131592
-0.30721152 0.2952978 -0.31341758 0.29485303 -0.33667693 -0.3262921 -0.3331496 0.2884661
-0.30608606 -0.34373236 0.34114078 0.28409246 0.31920692 0.27981803 0.3178165 0.29489532
0.2894039 0.32650334 -0.32645655 -0.31483695 -0.3187053 -0.34300157 0.33375466 0.29206917
-0.33953944 -0.36233723 0.33387557 0.29907498 0.2944295 0.29948214 -0.36576214 0.3343185
-0.30022213 -0.33639055 0.33259118 0.29004425 -0.34949902 -0.35549557 -0.3059665 -0.31651446
0.300073 0.28239027 0.28879258 0.32796112 -0.31427827 -0.33648226 -0.31801695 -0.31644344
-0.3294097 -0.33450437 -0.31698126 -0.30830738 0.28981653 -0.32133856 -0.31586605 0.2894544
-0.33685407 -0.34711063 -0.30856213 0.32922006 -0.30109107 -0.31116784 0.32716927 -0.3509884
0.32192957 -0.3663095 -0.339532 -0.3570292 -0.33579153 -0.32357624 -0.30001464 -0.3245811
0.2827689 -0.30557528 -0.32570025 -0.33025086
00000000: 362d a53e ec47 983e 80c9 903e 6f43 a3be
00000010: 5a51 943e c4fb aebe 7ca6 aa3e 93f0 9dbe
00000020: 3469 babe a415 b0be 7494 a9be 2682 9a3e
00000030: bb76 abbe 6998 b3be b201 a1be 45ed ab3e
00000040: 224c b5be 537d a5be ff98 b13e 2549 9c3e
00000050: c29f a23e 2323 a33e 8c8c 983e cd64 9fbe
00000060: d44a 9dbe 4631 973e 4578 a0be faf6 963e
00000070: eb60 acbe c20f a7be 9692 aabe d4b1 933e
00000080: 50b7 9cbe b0fd afbe 01aa ae3e 9174 913e
00000090: 176f a33e 4f44 8f3e d8b8 a23e 85fc 963e
000000a0: bf2c 943e 722b a73e 5025 a7be 4f32 a1be
000000b0: 572d a3be e79d afbe e4e1 aa3e 178a 953e
000000c0: 1dd8 adbe 4484 b9be bdf1 aa3e 5b20 993e
000000d0: 77bf 963e b955 993e 2d45 bbbe cb2b ab3e
000000e0: b7b6 99be 623b acbe 6449 aa3e ae80 943e
000000f0: 89f1 b2be 8403 b6be a4a7 9cbe 2f0e a2be
00000100: 2ba3 993e 7595 903e 9fdc 933e 85ea a73e
00000110: 15e9 a0be 6747 acbe 1ed3 a2be e004 a2be
00000120: 63a8 a8be 2844 abbe 5e4b a2be 77da 9dbe
00000130: d562 943e 7d86 a4be 32b9 a1be 5e33 943e
00000140: 2378 acbe 7cb8 b1be dbfb 9dbe 888f a83e
00000150: 9c28 9abe 6451 9fbe bb82 a73e c0b4 b3be
00000160: f4d3 a43e eb8c bbbe 23d7 adbe 88cc b6be
00000170: deec abbe c9ab a5be 859b 99be 7e2f a6be
00000180: 16c7 903e 5d74 9cbe 2fc2 a6be a416 a9be

final_layers.7.running_mean f4 [100]
0.45450965 0.45835322 0.48780844 0.4547316 0.49394378 0.208374 0.3415671 0.5447101
0.64155793 0.45331758 0.239306 0.520692 0.3855255 0.31442046 0.4720601 0.39311364
0.52073896 0.39613548 0.35436723 0.5126468 0.43720275 0.46070886 0.4771071 0.37168765
0.35481215 0.4830419 0.5190452 0.50056326 0.48027244 0.5307518 0.3827583 0.42386562
0.4314332 0.49267766 0.37905818 0.49217737 0.42524484 0.43553066 0.48100287 0.45774147
0.4388304 0.4500441 0.34710756 0.4896929 0.48856765 0.48507762 0.34243566 0.4356326
0.38984635 0.66920805 0.41104698 0.32647306 0.3581704 0.41181022 0.67827237 0.40444565
0.5186909 0.38181096 0.30973193 0.45725867 0.47650734 0.58520645 0.46498984 0.553419
0.43586653 0.47646937 0.4521075 0.3528841 0.41833135 0.47642365 0.49476886 0.39976078
0.30420777 0.4274603 0.5191034 0.4891379 0.47605914 0.4759468 0.4796009 0.447283
0.35319775 0.5567862 0.5213769 0.42558357 0.48074952 0.4419388 0.49979866 0.5110452
0.2415691 0.36510378 0.3713151 0.49212623 0.3661434 0.4623714 0.43258944 0.5350927
0.45213193 0.5168242 0.49552643 0.31111723
00000000: 7db5 e83e 46ad ea3e 07c2 f93e 95d2 e83e
00000010: 33e6 fc3e fe5f 553e e2e1 ae3e 1f72 0b3f
00000020: 243d 243f 3e19 e83e a20c 753e 124c 053f
00000030: 9963 c53e b8fb a03e ddb1 f13e 3146 c93e
00000040: 264f 053f 45d2 ca3e 9f6f b53e d23c 033f
00000050: 0ad9 df3e 08e2 eb3e 6247 f43e d84d be3e
00000060: f0a9 b53e 4551 f73e 25e0 043f ea24 003f
00000070: 45e6 f53e 5adf 073f e5f8 c33e ea04 d93e
00000080: d0e4 dc3e 3f40 fc3e ea13 c23e acfe fb3e
00000090: b1b9 d93e e0fd de3e 0246 f63e 175d ea3e
000000a0: 61ae e03e 2e6c e63e 15b8 b13e 07b9 fa3e
000000b0: 8a25 fa3e 185c f83e ba53 af3e 3c0b df3e
000000c0: f199 c73e 3851 2b3f c074 d23e 7a27 a73e
000000d0: 1c62 b73e cad8 d23e 42a3 2d3f 8013 cf3e
000000e0: edc8 043f ba7c c33e 2f95 9e3e cf1d ea3e
000000f0: c5f8 f33e 17d0 153f 2613 ee3e deac 0d3f
00000100: e629 df3e cbf3 f33e a27a e73e 3aad b43e
00000110: 872f d63e cded f33e 5852 fd3e 72ad cc3e
00000120: 1fc1 9b3e 14dc da3e f6e3 043f 4870 fa3e
00000130: 06be f33e 4daf f33e 408e f53e 4702 e53e
00000140: 56d6 b43e 8a89 0e3f f578 053f 17e6 d93e
00000150: cd24 f63e cd45 e23e 9ce5 ff3e dcd3 023f
00000160: e45d 773e e2ee ba3e 031d be3e f8f7 fb3e
00000170: 2677 bb3e f2bb ec3e 5d7c dd3e d6fb 083f
00000180: d67d e73e 974e 043f a4b5 fd3e c24a 9f3e

final_layers.7.running_var f4 [100]
4.0035477 2.9451797 4.7616086 0.6030265 4.29674 0.96922076 0.80900306 0.78906465
8.837448 4.1939726 0.26208884 5.623748 0.483253 0.44131383 0.74837667 1.5601406
5.927508 0.4773006 0.74474776 3.3700964 3.419724 4.5487 4.6782804 0.42585948
0.5264866 4.709937 0.7529964 4.26383 0.6521037 0.7041754 0.60598016 3.8904533
0.5519091 0.6079138 1.0841322 5.053221 2.6459854 2.8527474 4.563273 3.7724667
3.7638233 3.1950107 0.5074655 0.69003403 0.6495752 5.1104665 2.4402006 3.7916536
4.129196 9.80056 3.7842731 1.5492717 2.4074728 2.5264995 8.617573 1.6261839
0.7772187 0.44508004 1.5621612 4.496615 5.0615697 7.378869 0.6553136 0.8698572
3.446192 3.686958 3.8792913 1.9697908 0.5785956 0.6233577 0.6966631 0.5087282
0.33726072 0.58394295 0.74608946 0.76040715 4.3552504 0.7261531 0.62816197 4.0798593
0.47458598 5.4051194 0.9089211 3.9053268 0.73109156 0.64990854 3.3842497 0.71704274
0.75909853 3.0954397 2.7340572 5.772544 0.43453482 0.8435383 0.5579853 0.78019947
4.001905 0.8013017 0.6896008 0.33943847
00000000: 101d 8040 d37d 3c40 195f 9840 f25f 1a3f
00000010: e57e 8940 da1e 783f d31a 4f3f 2400 4a3f
00000020: 3066 0d41 0635 8640 8230 863e bef5 b340
00000030: f06c f73e e3f3 e13e 9d95 3f3f b0b2 c73f
00000040: 25ae bd40 bf60 f43e caa7 3e3f a9af 5740
00000050: c2dc 5a40 f38e 9140 79b4 9540 410a da3e
00000060: d3c7 063f ceb7 9640 5fc4 403f 4c71 8840
00000070: 45f0 263f d744 343f 8421 1b3f 30fd 7840
00000080: ea49 0d3f 3da0 1b3f d8c4 8a3f fdb3 a140
00000090: d357 2940 6a93 3640 5506 9240 1870 7140
000000a0: 7be2 7040 0e7b 4c40 42e9 013f 12a6 303f
000000b0: 8f4a 263f f188 a340 3f2c 1c40 74aa 7240
000000c0: 6022 8440 18cf 1c41 8831 7240 894e c63f
000000d0: 0914 1a40 2bb2 2140 94e1 0941 cb26 d03f
000000e0: cef7 463f 88e1 e33e e6f4 c73f 45e4 8f40
000000f0: 61f8 a140 b21f ec40 a2c2 273f f6ae 5e3f
00000100: 698e 5c40 1ff7 6b40 4f46 7840 1b22 fc3f
00000110: d71e 143f 5f94 1f3f 8358 323f 033c 023f
00000120: 70ad ac3e 497d 153f b8ff 3e3f 0baa 423f
00000130: 365e 8b40 2be5 393f 39cf 203f 358e 8240
00000140: effc f23e bdf6 ac40 0eaf 683f e0f0 7940
00000150: d128 3b3f 6860 263f 8c97 5840 1d90 373f
00000160: 4854 423f af1b 4640 cbfa 2e40 aeb8 b840
00000170: 597b de3e 20f2 573f 20d8 0e3f 27bb 473f
00000180: 9b0f 8040 1c22 4d3f ae89 303f e1ca ad3e
